HW5/car_dqn_model.pth (torch, 8413 bytes, 6 tensors)

net.0.weight f4 [32, 3]
00000000: a42f 6c3e 6331 ccbc 9208 903d a4c5 5a3f
00000010: 38fa 503d d77f 8abd df84 3bbd d1ea 6cbf
00000020: e145 85bf 8969 12bc d9c4 27bf 0fbe 4bbf
00000030: 35ad 1abf 8c69 0fbb a2b9 ca3e 439d fcbd
00000040: 7992 fcbe 5c03 e1be 0f69 093d 261d 40ba
00000050: ddfe 27be 9750 4b3f dec3 5cbe a512 73bd
00000060: a8af 603f a758 533e cadf c3bd bfef dabd
00000070: 01e3 ba3d d11e 18bf 06a2 883e 59c5 303f
00000080: 5dd4 753e 465b 93be 09cf 8b3f 115e 65bf
00000090: ed0a 40be 32bc cabe dc98 ac3e 7e6e 0d3f
000000a0: 0347 343e 4d80 90be 9800 f0be 7af7 1f3e
000000b0: c9f5 4e3e 5a8f 033f da78 7c3e 2688 54bf
000000c0: 8ebc 243f 6012 15bf 15c3 38bf 5098 ccbd
000000d0: 646c d0be fc95 ccbe cc30 83be 419a 8dbe
000000e0: 50a2 d2be 5ba2 b8be 1c75 a53c ac97 14bf
000000f0: 2421 2c3f 14e0 6e3e 8ea4 793d b28a 5f3e
00000100: 8543 20bf f374 7d3f 6e17 40be 1713 04bf
00000110: 8ee3 d2be 4a04 d4bd 4e31 003f d049 413f
00000120: 4dab 3f3e bb41 8abc fdad 8d3e 2887 173f
00000130: c165 373f 1284 323f f858 45bf 6ccb 7b3f
00000140: 6ad8 3d3e 2d37 0e3f 9bfd 1d3e 27c8 213f
00000150: a841 c0be d06c 6fbd c623 f9be a205 4ebd
00000160: 0856 723e 34ff a13e a2ef 1f3e 8822 64bf
00000170: 445e 5dbf 0e3b 1a3f 66fa 44bd 6857 a43e
0.23065048 -0.024925893 0.07032885 0.85457826 0.051019877 -0.06762665 -0.045781013 -0.925458
-1.041195 -0.008936294 -0.6553474 -0.7958688 -0.6042054 -0.002188298 0.39594752 -0.12334683
-0.493305 -0.43947875 0.033547457 -0.0007328562 -0.16405816 0.79419845 -0.21559092 -0.059343953
0.8776803 0.20639287 -0.09564169 -0.10690259 0.09125329 -0.5942202 0.26686114 0.6905113
0.24006791 -0.28780574 1.0922557 -0.8959666 -0.18754168 -0.39596707 0.33710372 0.5524672
0.17605214 -0.28222886 -0.46875453 0.15621749 0.20210947 0.5139061 0.24655476 -0.83020246
0.6435021 -0.58231163 -0.7217267 -0.09989989 -0.40707695 -0.3995818 -0.25623167 -0.2765675
-0.4113946 -0.36061367 0.020197444 -0.5804393 0.6723807 0.23327667 0.060947947 0.21830252
-0.62603027 0.99006575 -0.18758938 -0.5159163 -0.41189235 -0.103523806 0.50075233 0.75503254
0.1871769 -0.016877046 0.27671805 0.5919061 0.7163964 0.69732773 -0.7708888 0.9835727
0.18539587 0.5555294 0.15428774 0.63196033 -0.37550092 -0.05845338 -0.48660105 -0.05029834
0.23665631 0.31640017 0.15618756 -0.8911519 -0.8647196 0.6024636 -0.04809036 0.32097936

net.0.bias f4 [32]
00000000: bbd9 b2be abfc ad3e b254 653f 6cc7 363f
00000010: be07 2dbf 6b5a 5f3f 0e67 813f 3bcc d3bd
00000020: 4cab 853f 1184 393f 4634 583f b4a7 2ebe
00000030: 7dfd 893f e9e7 963f 59f1 803f 57d6 bbbe
00000040: a0e5 b73e 44b3 01be e046 e7bc 01cc 7c3f
00000050: 5753 203e eeb1 2e3f af28 05bf 06f1 a43d
00000060: cae9 68bf bfd7 e43c 8158 0d3e ffe6 203f
00000070: cd9b babe 59e1 e9bd 02d0 363f 84d3 163f
-0.3493174 0.33981833 0.8958236 0.71398044 -0.6758994 0.8724734 1.0109575 -0.10341688
1.0442901 0.7246714 0.8445476 -0.17056161 1.0780483 1.1789523 1.0073653 -0.36686966
0.35917377 -0.1266604 -0.028232038 0.98748785 0.15656792 0.6824025 -0.52015203 0.08053784
-0.90981734 0.027934907 0.13803293 0.6285247 -0.36446992 -0.11419935 0.71411145 0.589165

net.2.weight f4 [32, 32]
00000000: 045d 8cbf 5b14 33bf 3a56 bf3c 5820 7a3d
00000010: 05e8 67bf ae38 e13e 21fe 1f3e d16a dbbd
00000020: e50f 39bf d40c 97be 8cae 0abd b942 0d3e
00000030: 8b45 033f ca02 6d3e a74a b63e 2136 14bf
00000040: ad59 e33f e099 653d 4127 1bbe 47d5 30be
00000050: 15ad 65bd 4986 543e 748a 61bd 1256 7dbc
00000060: b636 a0be 51d1 8fbe 7549 92bc 040a 1c3e
00000070: 13e2 adbd 03fe 64be 4438 6cbe a37a 9c3c
00000080: 2c5c 143e 6885 5bba 7857 99be f213 fdbe
00000090: 89ef c5bf 2786 c33e 86c6 423f 50e2 f63d
000000a0: 992e 9ebe 1a32 20bf 0dce bd3e 557c 15be
000000b0: 81b1 c43e edf7 953e bc2e 92be a322 133f
000000c0: c828 043f c9ca 1fbe 887c 2f3d 6710 22bf
000000d0: 6bd8 1a3e 81e9 da3e fd67 cabd eb77 203e
000000e0: 8265 04be e96b d93c 491e da3d 183e 373d
000000f0: 26cf ffbd ada2 693e de41 40bf ea56 923e
00000100: e08a cbbe 2fe8 83bd 9af6 053f d889 da3e
00000110: f552 763f ecc2 2fbe 407b 82be cf0f 8039
00000120: 41eb 9b3e e6a9 113f 6297 97bd 7c5a 5d3d
00000130: 1805 b83e 2776 1f3e 1454 813e d290 07bf
00000140: 8339 d9be 0129 203e 2fb5 e8bd bea5 473f
00000150: af2f 193d 3087 26bd 8cf2 17bd 7ed7 90be
00000160: 7fde b0be 4603 f53d fee0 303e 62a2 d83d
00000170: f9e4 05be 9f57 92bd eee1 213f 159b 09be
00000180: 47cb 3abe 6cc9 d03d 600f 903e 651a be3e
00000190: eaff 31bf ab6a 4b3e 7d97 7c3e bbe6 293c
000001a0: ac14 133c e09d f13e adcf f1bd 53d4 c13e
000001b0: 6fa3 293e ee23 1a3e df7a 8c3d 6c8c 473c
000001c0: da30 bc3e 2e7b e33d 4bb6 9fbd f3e3 a73e
000001d0: e75c 83be d21a 0bbf eea3 54bd bcf7 2fbe
000001e0: 6f8a b33d e4f2 8bbe 6595 9e3e 7df5 113d
000001f0: 8f13 09be 34c9 1dbe 0bb1 c03e b078 1dbf
00000200: b031 c5be 4c12 003e 18f3 e93e d618 ed3e
00000210: 4699 8c3f 13df ccbe cda7 55bd f754 cebd
00000220: c5ea eb3e 7e3f 533f 9116 ccbd 74df 9b3d
00000230: 559b ac3e 197a 403d 3c31 f23e 3e9e 51bf
00000240: 5d9c 03bf 844a 353d e81c a13c c657 243f
00000250: da4f 853d 96fb a3bd 6449 13bd 530d 8fbe
00000260: 82c1 25bf 41be 89bc 36d3 5c3e 4bd3 213e
00000270: 8336 eebd c23a 0abe 0a8c df3e 6aea 42be
00000280: ed4c 37bd 7a57 35be 0b6c ca3d 81f6 053e
00000290: de31 293e d79c 9b3d a74f 16be a214 a03d
000002a0: 523b e33d 0fb5 d6bc 6d3b bfbb b08d 023e
000002b0: ce52 41be d6e5 8ebd 6fdf 50be 180f 4a3d
000002c0: 8c71 4dbd 6043 513d fc79 0abd c99c 11be
000002d0: 6c98 c33d 14e4 c0bc cde2 2abe b6d3 bf3d
000002e0: 994c 36bd 676e 1cbe cc25 2abd e295 4fbd
000002f0: 381c f4bd 673b a3bd 472b 1e3d 4f64 13be
00000300: c667 44be bcf1 9dbd f1bd 553f eb1e 6d3f
00000310: 0d3a 843f 9352 52bd c8eb 82be 9d54 953d
00000320: 1412 b13e 5434 4e3f 97c8 713c 4aa1 213d
00000330: c090 e23e 2cc2 febb 4085 133f 5cce f9be
00000340: 33dd ffbe b032 d13c 90f3 f73c 7e5a 3f3f
00000350: 0a3f d73c cf4b bd3d 7310 0bbe 4402 923c
00000360: c4bf b5be 17f8 d3bd 36c6 883c 3d28 bd3b
00000370: 47ac 18be d96c d83d a83f 1f3f 6ba5 04bd
00000380: 8ac2 16bd eecd 153d c711 ef3d 7c56 17be
00000390: cbfd 99bd 79c0 2bbe 68cc b8bd 93d4 93bd
000003a0: 9ee5 be3d 34e3 4bbd 51f5 d43d 8ce9 e1bd
000003b0: 87a2 4bbe e6f4 59be 7c76 0d3d dca1 04be
000003c0: 58b5 9abd 075c 113e b7b6 2f3e a64f 30be
000003d0: f847 e63d e5e6 c5bd 1324 1f3e 52b8 3cbd
000003e0: 7a75 803c 47f8 d9bd cafc 693d 6ebb cc3c
000003f0: ee88 fe3d 1f7d 1dbe b8f6 bc3d ee83 acbd
-1.0965886 -0.69952935 0.023356546 0.061066 -0.9058841 0.43988556 0.15624286 -0.10713733
-0.7228988 -0.29501975 -0.033857867 0.13794984 0.5127799 0.23145595 0.3560383 -0.57895094
1.7761742 0.05605495 -0.15151693 -0.17268859 -0.056073267 0.2075435 -0.05506368 -0.015462415
-0.3129174 -0.28089383 -0.017857293 0.15238196 -0.08490386 -0.22362523 -0.23068339 0.019101446
0.14488286 -0.0008374066 -0.29949546 -0.4942928 -1.5463725 0.38188288 0.7608417 0.120548844
-0.30894926 -0.6257645 0.37071267 -0.1459821 0.38416675 0.29290715 -0.2855128 0.57474726
0.5162473 -0.156047 0.04284337 -0.6330628 0.1512162 0.42756274 -0.098831154 0.15670745
-0.12929347 0.026540713 0.10650308 0.04473695 -0.12490682 0.22815962 -0.75100505 0.28581935
-0.3975439 -0.0644077 0.5232941 0.4268329 0.9622033 -0.171642 -0.25484657 0.0002442584
0.30452922 0.5689987 -0.07401921 0.05404137 0.35941386 0.15572415 0.2525946 -0.52955353
-0.4242669 0.15640642 -0.11362683 0.7798728 0.03739899 -0.04065627 -0.037096545 -0.28289407
-0.3454475 0.11963515 0.17273328 0.10577847 -0.13075627 -0.07145619 0.63235366 -0.13438065
-0.18241607 0.10194668 0.2813673 0.37129512 -0.6953112 0.1986491 0.24667163 0.010369952
0.0089770965 0.47190762 -0.11807189 0.37857303 0.16566251 0.15052769 0.06859373 0.012179475
0.3675602 0.11107479 -0.077984415 0.327911 -0.25656816 -0.543378 -0.051914148 -0.17184347
0.087666385 -0.27333748 0.30973354 0.035634506 -0.13386367 -0.15408784 0.37635073 -0.6151228
-0.3851447 0.1250698 0.45693278 0.4630801 1.0984275 -0.40013942 -0.05216198 -0.100747995
0.46077552 0.82518756 -0.09965242 0.0761098 0.3371226 0.04699144 0.47303188 -0.81882083
-0.51410466 0.044260517 0.019667104 0.6419643 0.06509371 -0.080069706 -0.035958663 -0.27939853
-0.64748394 -0.016814353 0.21564946 0.15803258 -0.11631491 -0.13498977 0.4366153 -0.19034734
-0.044751097 -0.17709151 0.09883889 0.13082315 0.16522929 0.07598274 -0.14678822 0.078164354
0.11095299 -0.026209382 -0.0058359415 0.12749362 -0.18879244 -0.069774315 -0.20397733 0.0493308
-0.050157115 0.051089644 -0.03380774 -0.14219965 0.095505565 -0.023546256 -0.1668808 0.093665525
-0.044506643 -0.1527649 -0.041539952 -0.05068005 -0.11919445 -0.079703145 0.03861549 -0.14393733
-0.19180211 -0.07712123 0.8349295 0.926253 1.0330216 -0.05134828 -0.25570512 0.07291529
0.34584105 0.80548596 0.014757297 0.039460458 0.4425106 -0.007774612 0.576252 -0.48790252
-0.4997345 0.025536865 0.030267507 0.74747455 0.026275177 0.09242975 -0.13580494 0.017823346
-0.35497868 -0.10350054 0.016696077 0.005772619 -0.14909469 0.10567636 0.62206507 -0.032384317
-0.03680662 0.036573343 0.11673313 -0.14779085 -0.0751911 -0.16772641 -0.090233624 -0.0721828
0.0932114 -0.049777225 0.10398353 -0.11030874 -0.19886218 -0.21284828 0.034536824 -0.1295237
-0.0755412 0.14195262 0.17159544 -0.17217883 0.11244196 -0.0966318 0.15541105 -0.04607422
0.015681017 -0.10643058 0.057125844 0.024991717 0.12428461 -0.15379761 0.09226745 -0.08423601

net.2.bias f4 [32]
00000000: b87e 893e ac80 6a3f a41d 0abd 68bf d63d
00000010: b4d6 263c 4c4b 503b dd93 97bd 5b0d 02bd
00000020: 5e24 4f3e 8d78 97bc cce2 33be fd1f a43c
00000030: 1030 cd3e ed71 943c 97e7 b7be f8e0 bfbd
00000040: cc0f 01bd ab20 1e3f c60e 42be cb5d f0bd
00000050: f795 803e 87ec 4c3d f8cf e6bc 235f f0be
00000060: 341e 8d3d 2dbc 4ebe 58bd 0d3c 60d3 563e
00000070: e21a 9e3c 2ad6 04be e73b 123f 9996 88be
0.2685449 0.9160259 -0.033719674 0.104857266 0.010183025 0.0031783162 -0.074012496 -0.031751018
0.20228717 -0.0184901 -0.17566985 0.020034784 0.4007573 0.01812073 -0.35918877 -0.09369081
-0.031509206 0.617686 -0.18950948 -0.117366396 0.25114414 0.050030258 -0.02817534 -0.46947584
0.068905264 -0.20188971 0.0086511 0.2097907 0.019299928 -0.12972322 0.57122654 -0.26677397

net.4.weight f4 [4, 32]
00000000: 5657 303f a16a ba3e 21cd d8be 82ae 713e
00000010: 9ae2 c6be 13f3 e93d e596 16bf 5a84 bc3d
00000020: 5bed 53bf 4c56 d1be b83d b8be 882e 95bf
00000030: 0b4e db3f b28e 93be 05b6 e0be d233 b33c
00000040: 1f65 debe 43de a03f 5a43 0140 a5e2 1abe
00000050: 2b24 143f 4b5d b03c 220c 843c de13 54bf
00000060: 3205 993d b094 d6bd 5375 f9be 806f 1740
00000070: be5b bcbe 29eb cebe f93f 243e 22ac adbf
00000080: bcd9 aa3e 3876 35bf 0abd aabe afd1 da3e
00000090: f571 efbe d7b4 ccbc 3014 773d 47a4 f6bd
000000a0: c469 b83c e716 acbe 8860 a1be bd30 593d
000000b0: a7c5 b3bc 9a55 43be 24dc 453d 2048 86bb
000000c0: 4c5e 6b3d 5723 d4be c8f6 b03e b866 bdbd
000000d0: 6be5 0cbe 45d0 4ebd 4e69 fa3d 9f37 593d
000000e0: d0bc 60bd c947 2a3d 1fc7 43be 3c39 923c
000000f0: ac85 83bd 08d1 f63d c6be 2dbd 8e32 823e
00000100: 6278 bd3e 6d2e 4bbf 9180 2fbe 7302 933e
00000110: d4c4 5cbe 85cd 093e 935a c3bd f3bc 0ebe
00000120: 0271 6ebc 6719 aebe 859b 10be e218 a63d
00000130: 6bc0 c0bd 8f61 78be b83e 563e ef73 a23d
00000140: c32b 023e 36bd bdbe 3904 8f3e 5067 d1bc
00000150: 1978 febd 976f 673b 5e9b eb3d 0da0 f83d
00000160: 60b2 aebb 6382 813c ccff 20be 4e1f 0bbd
00000170: c222 92be 732f c63b 05d4 0bbd e15d 103e
00000180: ad79 c73e 539a 33bf 6804 8dbd b679 053f
00000190: 3455 99be 6018 b0bd 9e91 e23c 4119 50bc
000001a0: 10fb ca38 7416 93be 620e c2be 34ec d23c
000001b0: 1bf5 86bd b47b e0bc 732e a03d 2795 9f3d
000001c0: 1cec d1bd f577 e1be 7802 fd3e 702d 58bc
000001d0: 41e8 cebe cc22 113e b966 b6bd 8cc9 b8bd
000001e0: 1625 01be 1ece 9fbd 1309 75be a147 b93c
000001f0: 4701 4cbe 7dcb aabc b6fc 44bd 0dd4 ad3e
0.68883264 0.36409476 -0.42344 0.23601726 -0.38844758 0.11423316 -0.58823997 0.092049316
-0.8278405 -0.40886152 -0.35984588 -1.1654825 1.7133192 -0.28819805 -0.4388887 0.021875296
-0.43436524 1.2567829 2.0197358 -0.1512552 0.5786769 0.02152886 0.016119067 -0.82842815
0.07471694 -0.10477579 -0.48722324 2.3661804 -0.36788744 -0.40413788 0.16040029 -1.3568156
0.33369243 -0.7088351 -0.3334735 0.427381 -0.4676663 -0.024988575 0.060321987 -0.12043052
0.02251137 -0.33611223 -0.3151896 0.053024996 -0.021944834 -0.19075623 0.048305646 -0.0040979534
0.057462975 -0.41433212 0.3456328 -0.09248108 -0.13759391 -0.05049159 0.122271165 0.05303156
-0.054867566 0.041572366 -0.19118927 0.017849557 -0.0642198 0.12051588 -0.042418264 0.25429195
0.37005907 -0.79367715 -0.17138888 0.28712806 -0.21559459 0.13457306 -0.0953876 -0.13939266
-0.01455331 -0.34003755 -0.14121826 0.08110215 -0.09411701 -0.24255966 0.20922363 0.07932269
0.12712006 -0.3705842 0.2793291 -0.025561959 -0.124252506 0.0035314315 0.11504243 0.12139902
-0.0053313226 0.015809244 -0.15722579 -0.0339654 -0.28542143 0.006048137 -0.034137744 0.14098312
0.3896002 -0.70157355 -0.06885606 0.5213884 -0.29947817 -0.08598399 0.027657326 -0.0127013335
9.6788746e-05 -0.28728068 -0.37901598 0.025747396 -0.06589719 -0.027402736 0.078213595 0.077921204
-0.102501124 -0.44036832 0.49415946 -0.013194427 -0.4041157 0.1417343 -0.089063115 -0.09022817
-0.12611803 -0.078029856 -0.23929243 0.022617163 -0.19922362 -0.020848984 -0.048092566 0.33950844

net.4.bias f4 [4]
00000000: fe74 753e 2f7f 5fbf c869 49bf e5f0 14bf
0.2397041 -0.8730344 -0.78677034 -0.58180076
